attack_env/model/hybrid_model_except_web.pt (torch, 278821 bytes, 18 tensors)

conv1.weight f4 [32, 1, 5]
0	0xbd122add	-0.03568541
1	0xbea6f52d	-0.3260893
2	0xbebd1c2f	-0.36935565
3	0xbe66561e	-0.22493789
4	0xbeaa07c3	-0.33209047
5	0x3f288d66	0.65840757
6	0x3d9cfa86	0.07664971
7	0xbf966947	-1.1750878
8	0x3f03183a	0.5120884
9	0xbf74ba8e	-0.9559716
10	0xbe8b1786	-0.27166384
11	0x3f70b76f	0.940299
12	0xbf26be8c	-0.651345
13	0x3f0e0ae3	0.5548536
14	0xbdace193	-0.08441462
15	0x3f790b15	0.97282535
16	0x3f196f31	0.5993529
17	0x3f8ddd53	1.1083168
18	0xbf55365b	-0.83286065
19	0xbf762a5f	-0.96158403
20	0xbec08e90	-0.37608767
21	0x3f9482b3	1.1602386
22	0xbf23e087	-0.64014477
23	0xbe4e7222	-0.20160726
24	0x3ee4c43f	0.44680974
25	0xbfdeb9c9	-1.7400447
26	0x3d46922b	0.04847924
27	0x3ea8cd26	0.32969016
28	0x3f83157d	1.0240933
29	0xbeae1566	-0.340007
30	0x3f45b16e	0.7722386
31	0xbf218691	-0.6309596
32	0xbd9123cc	-0.07086906
33	0x3f162a1c	0.58658004
34	0x3db5cf32	0.0887741
35	0x3fa0fd1f	1.2577246
36	0x3e8736ea	0.26409084
37	0xbeb3d909	-0.35126522
38	0xbf1d6bd4	-0.6149266
39	0xbe84cf26	-0.25939292
40	0xc010cb69	-2.2624152
41	0x3e864de6	0.26231307
42	0x3f360a74	0.711097
43	0x3edc5a2e	0.43037552
44	0xbe99a2ff	-0.3000717
45	0x3fa08960	1.2541924
46	0xbf16d0c3	-0.58912295
47	0x3eb0e4f0	0.34549665
48	0x3e0ace6d	0.13555308
49	0xbea02caf	-0.3128409
50	0x3eafdd0a	0.34348327
51	0xbe26e1fc	-0.16297144
52	0x3f9a8d35	1.2074343
53	0xbe557360	-0.20844793
54	0xbdcf7838	-0.10130352
55	0xbe9d1f87	-0.30688116
56	0x3f84c825	1.0373579
57	0x3fa96307	1.3233346
58	0xbee51115	-0.44739595
59	0xbea320a9	-0.31860855
60	0xbdf79230	-0.1208843
61	0xbe8dc47e	-0.27688974
62	0xbdaae988	-0.08345324
63	0x3dd69bb7	0.10478919
64	0x3d1accc5	0.03779294
65	0xc0024cd6	-2.0359397
66	0x3f4b225f	0.7934932
67	0xbe3c1a0f	-0.18369316
68	0x3f0912d0	0.5354433
69	0xbe0a0936	-0.13480076
70	0xc0027357	-2.0382898
71	0xbe9bfb68	-0.30465245
72	0xbe028cfb	-0.12749092
73	0x3f8c65e7	1.0968598
74	0xbf5a6a41	-0.8531838
75	0xc0abc4f5	-5.3677926
76	0x3f46272a	0.7740351
77	0xbfca4971	-1.5803663
78	0xbf815578	-1.0104208
79	0x3f5f66e8	0.872664
80	0x3f2150b2	0.63013756
81	0xbe9be03d	-0.30444518
82	0xc0408a36	-3.0084357
83	0xbe811c0e	-0.25216717
84	0x3f779d79	0.9672466
85	0x3f3b6432	0.7319976
86	0xbf500b89	-0.812676
87	0xbdc4f245	-0.09616522
88	0x3f860f6e	1.0473459
89	0x3e8a29e2	0.2698508
90	0x3fbdcb80	1.4827728
91	0xbe03bd3a	-0.12865153
92	0x3f04cf5a	0.51878893
93	0x3f1bb838	0.6082797
94	0x3df96209	0.12176902
95	0xbe99746e	-0.2997164
96	0x3e83f57b	0.25773224
97	0xbeb439ea	-0.35200435
98	0xbeaf2818	-0.34210277
99	0x3d96e100	0.07367134
100	0x3ed65dd2	0.41868454
101	0x3f4835a9	0.7820688
102	0xc02844b0	-2.6291924
103	0xbe0a0cf1	-0.13481499
104	0xbe6fa723	-0.23403601
105	0xbebdfdd8	-0.3710773
106	0x3e065fab	0.13122432
107	0x3da9c375	0.082892336
108	0xbed01169	-0.40638283
109	0xbec7017e	-0.38868326
110	0xbf3361f7	-0.7007136
111	0x3f6e5975	0.9310525
112	0xbe9eabf9	-0.3099058
113	0x3e70f0ea	0.23529401
114	0x3f20c9af	0.62807745
115	0x3e7504c1	0.23927595
116	0x3fb01c6e	1.3758676
117	0xbf2f18fc	-0.683975
118	0xbf0609a2	-0.5235845
119	0xbf96d18f	-1.1782702
120	0x3f69df28	0.91356134
121	0x3e09c581	0.13454248
122	0xbdef4723	-0.1168349
123	0x3ee808c9	0.45319203
124	0x3d21aa99	0.039469335
125	0x3fcfab96	1.6224239
126	0xbf037ddb	-0.51363915
127	0x3e8e7aca	0.27828056
128	0x3e8fd193	0.2808958
129	0xbe091a32	-0.13388899
130	0xbf003777	-0.5008463
131	0xbd5a3c90	-0.053280413
132	0xbf2639c3	-0.6493189
133	0xbf634c7e	-0.8878859
134	0x3fa8afe4	1.3178678
135	0xbfa4f3cd	-1.2886902
136	0x3eb17c8e	0.3466534
137	0x3f9ee351	1.2413121
138	0xbfc0183b	-1.5007395
139	0xbcf021ce	-0.029312994
140	0x3e6b2777	0.22964273
141	0xbe2c0a20	-0.16800737
142	0xbe4b7d57	-0.19872032
143	0xbe7e7ed1	-0.24853064
144	0xbecb9f2e	-0.39769882
145	0xc00ddd08	-2.2166157
146	0xbf53af1e	-0.8268908
147	0x3f95bf4c	1.1699004
148	0xbf85c954	-1.0452065
149	0x3e743e35	0.23851855
150	0x3de43d0b	0.111444555
151	0x3f88be9f	1.0683173
152	0x3e3e5a51	0.1858914
153	0xbe9fe07f	-0.31225964
154	0xbda0e3fe	-0.07855986
155	0x3e5348e1	0.2063327
156	0x3fa642ea	1.298917
157	0x3de68f1c	0.11257765
158	0xbc3bd796	-0.011464974
159	0xbef4ddcb	-0.47825465

conv1.bias f4 [32]
0	0xbeb2e482	-0.34939963
1	0x3e1b29de	0.1515269
2	0xbea62027	-0.32446405
3	0x3eb60827	0.35553095
4	0xbe8b5538	-0.27213454
5	0xbd81935b	-0.06326934
6	0xbeaaf6bd	-0.3339137
7	0x3d8578ac	0.06517157
8	0x3dafac29	0.08577759
9	0xbc834b72	-0.016027186
10	0xbe4c8563	-0.19972758
11	0xbd8d8299	-0.06909675
12	0xbe6fa520	-0.23402834
13	0x3e1e189f	0.1543908
14	0x3ddd3f28	0.10803062
15	0x3ef691fb	0.4815825
16	0xbb0dbc5c	-0.0021627164
17	0xbebfea31	-0.3748336
18	0xbee4e96d	-0.4470934
19	0xbebbfb77	-0.3671529
20	0x3b3636e3	0.002780371
21	0xbe5bc312	-0.21461132
22	0xbec501c6	-0.38477916
23	0x3eed410e	0.46338695
24	0xbf0bfed1	-0.54685694
25	0xbe2d4372	-0.1692026
26	0xbc845bb4	-0.016157009
27	0x3dd9eebe	0.106412396
28	0xbeb3ccdf	-0.35117242
29	0x3ed59357	0.41713974
30	0xbe1939c5	-0.14963444
31	0xbe68b1b8	-0.22724044

bilstm.weight_ih_l0 f4 [256, 32]
0	0x3d6c8308	0.05774215
1	0xbf196e5e	-0.5993403
2	0xbe2a90a0	-0.16656733
3	0xbe566de8	-0.20940363
4	0x3d9955be	0.07487057
5	0xbe12fae5	-0.14353521
6	0xbef09bed	-0.46993962
7	0xbe74878c	-0.23879832
8	0x3ccbb2de	0.024865564
9	0xbed06863	-0.4070464
10	0xbdd76a8a	-0.105183676
11	0x3e09751c	0.1342358
12	0xbdd60ad2	-0.104512826
13	0xbe8b21a0	-0.2717409
14	0xbf21ddda	-0.63229144
15	0xbe2f8c47	-0.17143355
16	0xbe7fb023	-0.24969535
17	0xbedd1b2b	-0.4318479
18	0xbe8a93e0	-0.27065945
19	0x3d9b9c02	0.075981155
20	0xbee37370	-0.4442401
21	0x3de7a8db	0.113115035
22	0x3e924d05	0.28574386
23	0xbeacbf08	-0.33739495
24	0xbedc3ca0	-0.43015003
25	0xbedc877e	-0.43072122
26	0xbf01777e	-0.50572956
27	0xbc5c94aa	-0.013463179
28	0xbd8e03bc	-0.06934306
29	0xbea92f2e	-0.33043808
30	0xbe699989	-0.22812475
31	0xbf220a36	-0.6329683
32	0xbd874602	-0.0660515
33	0x3fb03fe7	1.3769501
34	0x3f9c6391	1.2217885
35	0x3eb2af30	0.34899282
36	0x3f8ab037	1.0835027
37	0x3e2318ca	0.15927425
38	0x3d3162a5	0.043306965
39	0x3ec74df0	0.3892665
40	0x3f3fc95a	0.74916613
41	0x3f22311b	0.6335618
42	0x3deafa57	0.1147353
43	0x3e8df1bf	0.277235
44	0x3cb74450	0.022371441
45	0x3e556a80	0.20841408
46	0x3f4acb43	0.792164
47	0x3f0fed79	0.5622173
48	0x3efcfbd6	0.49410886
49	0xbeab0a21	-0.33406165
50	0xbe187fad	-0.14892454
51	0x3c2218e0	0.009893626
52	0x3ef42088	0.4768107
53	0xbd0f15b8	-0.034932822
54	0xbe97b761	-0.29632095
55	0x3f0feebf	0.5622367
56	0x3f0483da	0.5176369
57	0x3e48ff72	0.19628695
58	0x3f00275f	0.50060076
59	0x3f847242	1.0347369
60	0x3c9d4010	0.019195586
61	0x3e9bb79b	0.30413517
62	0x3f472fa8	0.7780709
63	0x3ec07111	0.37586263
64	0x3c280680	0.010255456
65	0x3e606b9c	0.2191605
66	0x3d41e6a6	0.047339104
67	0xbde47fe3	-0.11157205
68	0x3e11ddd5	0.14244778
69	0x3f824fb4	1.0180573
70	0x3e9d7f22	0.30761057
71	0xbe732517	-0.23744617
72	0x3f56282e	0.8365506
73	0xbe4510e4	-0.19244725
74	0x3e640f7b	0.2227153
75	0x3ec51032	0.3848892
76	0x3dff477a	0.12464805
77	0x3ecbfb78	0.39840293
78	0x3f3e85dd	0.7442301
79	0x3e5122cf	0.20423435
80	0x3e40e4ad	0.18837233
81	0x3d85b59b	0.06528779
82	0xbdbb086e	-0.09132467
83	0x3be31cc0	0.0069309175
84	0xbe8df21b	-0.27723774
85	0x3cbeded3	0.02329961
86	0x3c663c4d	0.014052463
87	0xbec9f9d1	-0.39448407
88	0x3d886257	0.06659382
89	0xbdbd774e	-0.09251271
90	0x3ee6e9fa	0.45100385
91	0x3f15b5b9	0.5848041
92	0xbd6c4864	-0.057686225
93	0x3f286980	0.6578598
94	0xbebe71b1	-0.37196115
95	0xbe3a86b6	-0.1821545
96	0xbc864230	-0.016388983
97	0x3f2add2d	0.6674374
98	0x3efa433f	0.4887943
99	0xbe84b02d	-0.2591566
100	0x3ef3b092	0.4759565
101	0xbf26b809	-0.65124565
102	0xbd0a1639	-0.0337126
103	0xbdcecdfe	-0.10097884
104	0xbe951d33	-0.2912384
105	0x3eae04d5	0.33988062
106	0xbee6b65d	-0.45061007
107	0xbf4e22cc	-0.80521846
108	0x3de2d2d0	0.110753655
109	0x3d93bf5e	0.07214235
110	0x3e686cd2	0.22697762
111	0x3f97a488	1.1847086
112	0x3eec91f8	0.46205115
113	0xbe1a1ed4	-0.15050822
114	0xbe1b2ef1	-0.15154625
115	0xbdc3f522	-0.0956824
116	0x3f0dd10e	0.5539712
117	0x3da22071	0.07916344
118	0x3de18029	0.11010773
119	0x3e9e40c9	0.30908802
120	0xbd397773	-0.04527993
121	0xbde054d3	-0.10953679
122	0x3f1e0aab	0.6173503
123	0xbddb629d	-0.10712168
124	0xbd29be6c	-0.041441366
125	0x3efbd6d5	0.4918734
126	0x3db4c749	0.08827073
127	0xbe83b749	-0.25725773
128	0x3ca016e0	0.019542158
129	0xbf132dad	-0.5749157
130	0xbedb0c22	-0.42782694
131	0xbe791a7c	-0.24326509
132	0xbd1ebef7	-0.038756337
133	0xbee9429b	-0.45558628
134	0xbec4b232	-0.38417202
135	0xbefb1db2	-0.49046093
136	0xbe4e42f7	-0.20142733
137	0xbe9f331a	-0.31093675
138	0xbeac68c4	-0.3367368
139	0xbe968f4b	-0.294062
140	0x3cbe1460	0.023203075
141	0xbea153ce	-0.3150925
142	0x3d9dbcd1	0.077020295
143	0x3f8de591	1.1085683
144	0xbe07000a	-0.13183609
145	0xbee908ae	-0.45514435
146	0xbf428a9c	-0.7599275
147	0x3dd96398	0.10614699
148	0xbdf9d6fc	-0.12199208
149	0xbe01230a	-0.12611023
150	0xbec9e2db	-0.3943089
151	0xbf4c567a	-0.7981945
152	0xbef3dc1e	-0.47628874
153	0xbf09ed55	-0.53877765
154	0x3da405e0	0.08008933
155	0xbde2e400	-0.11078644
156	0xbd6e3de4	-0.058164492
157	0x3e7fc07e	0.24975774
158	0xbe1f4694	-0.15554267
159	0xbf27da16	-0.6556715
160	0x3df5fbec	0.12010941
161	0xb9381c5b	-0.0001755817
162	0xbd9339db	-0.071887694
163	0xbddeb116	-0.1087362
164	0x3e9aff9d	0.30273142
165	0xbe5cfbce	-0.21580431
166	0x3e5847e5	0.21121176
167	0x3e8c8762	0.2744704
168	0x3c8f7fb2	0.017516945
169	0x3d296abc	0.041361555
170	0xbedadaac	-0.42744958
171	0xbdb2d72d	-0.08732448
172	0x3d890e32	0.06692161
173	0x3e0c659c	0.13710636
174	0xbed8f050	-0.42370844
175	0xbf0abe3d	-0.5419653
176	0xbe256136	-0.16150364
177	0xbe2756f4	-0.16341764
178	0x3dd604cc	0.10450134
179	0x3d9aebf2	0.07564534
180	0xbf07bb4d	-0.53020173
181	0xbe0c9169	-0.13727345
182	0xbdb1bf4c	-0.08679065
183	0x3f789b66	0.9711212
184	0x3e124f3d	0.1428804
185	0x3d8f6a13	0.07002654
186	0x3e4f0477	0.20216547
187	0xbdadda16	-0.08488862
188	0x3d508f6c	0.050918028
189	0x3d22a9e2	0.039712794
190	0x3f5356d3	0.8255436
191	0x3e95f0a5	0.2928516
192	0xbda0a844	-0.07844594
193	0xbf826daa	-1.0189717
194	0xbec0fc4e	-0.37692493
195	0xbeeffa25	-0.46870533
196	0xbec856a5	-0.39128605
197	0xbeedc3f0	-0.4643855
198	0xbeac7440	-0.33682442
199	0xbe76a95e	-0.24088046
200	0xbed7d1f0	-0.42152357
201	0xbeb49182	-0.35267264
202	0xbf1bacca	-0.6081053
203	0xbf43cb6b	-0.76482266
204	0x3dd1dce6	0.10247211
205	0xbc3f24c6	-0.011666482
206	0xbe92b976	-0.2865712
207	0x3fbd5269	1.4790775
208	0x3ec68fb2	0.38781506
209	0xbe4af9a9	-0.198218
210	0xbeebf57b	-0.46085724
211	0xbd9abca4	-0.075555116
212	0xbe970055	-0.2949244
213	0xbd3dc220	-0.04632771
214	0xbdde3774	-0.108504206
215	0xbf3e6cbd	-0.7438467
216	0xbee5b0f2	-0.4486156
217	0xbee5251e	-0.4475488
218	0x3dfcbdbc	0.123408765
219	0xbee8c099	-0.4545944
220	0x3d802858	0.06257695
221	0x3ec749d4	0.38923514
222	0xbf3b0a42	-0.7306253
223	0xbf3b4b77	-0.73162025
224	0xbc2f00d0	-0.010681346
225	0x3e756de4	0.23967701
226	0xbe14671b	-0.14492457
227	0xbe839d24	-0.25705826
228	0x3f0d6ca2	0.55243886
229	0xbf98fbbe	-1.1951826
230	0x38874a88	6.451184e-05
231	0x3d6d2690	0.057898104
232	0xbd6bdbe5	-0.057582755
233	0xbba27e8b	-0.0049589328
234	0xbf32b131	-0.6980162
235	0xbf11db61	-0.5697537
236	0xbc1c1950	-0.009527519
237	0x3d9aadbc	0.075526685
238	0xbeb18f63	-0.34679708
239	0x3f3e7a29	0.7440515
240	0x3f32e1d8	0.6987586
241	0xbea36939	-0.31916216
242	0xbef211d7	-0.47279236
243	0x3d339b3c	0.043849215
244	0x3f81a27d	1.0127712
245	0x3d1fdfe4	0.039031878
246	0xbd4baeb9	-0.049727175
247	0x3ea99755	0.3312327
248	0xbe8230f3	-0.2542797
249	0xbe3389ed	-0.17533083
250	0x3f6c1b17	0.92228836
251	0xbeeab9e2	-0.45844942
252	0x3dc22dd8	0.094814
253	0x3ea1f35d	0.31630984
254	0xbe008f8f	-0.12554763
255	0xbe9b4542	-0.30326277

bilstm.weight_hh_l0 f4 [256, 64]
0	0x3f8865fd	1.0656124
1	0x3ef86ce2	0.4852057
2	0x3e470d9f	0.1943879
3	0x3efffa13	0.4999548
4	0x3f23c562	0.6397306
5	0xbf2ab071	-0.6667548
6	0x3fc72029	1.555669
7	0xbf8e5b19	-1.1121551
8	0xbf694553	-0.91121405
9	0x3ec5df8a	0.3864711
10	0x3eabc7d7	0.33550903
11	0x3f37b9f8	0.7176814
12	0xbe09b247	-0.13446914
13	0xbe1526f1	-0.14565636
14	0x3f9569ab	1.1672872
15	0x3eab42dd	0.3344945
16	0x3e9dcdc5	0.30821052
17	0x3e287075	0.16449149
18	0x3f231fd2	0.6372043
19	0x3f24ce93	0.6437771
20	0xbede0f92	-0.43371254
21	0x3f95a549	1.1691066
22	0xbf8afc48	-1.085824
23	0x3d7f6d70	0.062360227
24	0x3e87148a	0.26382858
25	0xbdb09fd5	-0.086242355
26	0x3e4f8d94	0.20268852
27	0x3e46d66c	0.19417733
28	0xbbfaf8fd	-0.0076590762
29	0xbe38ce12	-0.1804736
30	0xbf443749	-0.7664686
31	0x3f751359	0.9573265
32	0x3c243041	0.01002127
33	0x3f876002	1.0576174
34	0x3e46c54f	0.19411205
35	0x3e73f58f	0.23824142
36	0x3f0784f3	0.5293724
37	0xbe83b42c	-0.25723398
38	0xbf0c8b9b	-0.5490052
39	0xbe08314a	-0.13300052
40	0xbece5df2	-0.4030605
41	0xbea85728	-0.32878995
42	0xbea4a012	-0.32153374
43	0xbf3fdfaf	-0.7495069
44	0x3ec95535	0.3932282
45	0xbdb3c10f	-0.087770574
46	0xbea99992	-0.33124977
47	0xbed3af57	-0.4134471
48	0x3f092ef1	0.5358725
49	0x3db3a4a7	0.08771639
50	0xbe6708e1	-0.22561981
51	0xbe90bbec	-0.28268373
52	0x3f8d210a	1.1025708
53	0x3ed8db55	0.42354837
54	0xbe377d60	-0.1791892
55	0x3e92b7d7	0.28655884
56	0x3f18b5c0	0.5965233
57	0xbecc1094	-0.39856398
58	0xbf1ad7c4	-0.6048548
59	0xbd8e4234	-0.06946221
60	0xbf0a7698	-0.5408721
61	0x3c733147	0.014843292
62	0xbecdb966	-0.4018051
63	0x3f3aeb3b	0.73015183
64	0x3ea9176f	0.3302569
65	0x3f4ce3fd	0.8003538
66	0xbc84acff	-0.016195772
67	0x3e4193b0	0.18903995
68	0xbe85bafc	-0.2611922
69	0x3d9a2bb4	0.07527867
70	0x3ddacbe2	0.10683419
71	0x3f434706	0.7628025
72	0x3f7cf9ce	0.9881867
73	0x3e407969	0.18796314
74	0x3e2f8e5a	0.17144147
75	0x3edf38e4	0.43598092
76	0x3ee8bb3d	0.4545535
77	0xbe333324	-0.17499977
78	0xbf61b7ef	-0.88171285
79	0x3f941a38	1.1570501
80	0xbeb9b919	-0.3627403
81	0x3f027a5d	0.5096796
82	0x3f02cc9c	0.5109346
83	0xbe5afccc	-0.21385497
84	0x3edd23a1	0.43191245
85	0xbf137a7b	-0.57608765
86	0xbdba9d5c	-0.09112045
87	0x3f013ed7	0.5048651
88	0x3e80cf78	0.25158286
89	0xbea4f6da	-0.32219583
90	0x3e27cd0f	0.16386817
91	0x3e76ab05	0.24088676
92	0xbd9e8885	-0.07740883
93	0x3e7696d7	0.24080978
94	0x3f2b2b43	0.6686289
95	0xbe84b02d	-0.2591566
96	0xbd0b95bc	-0.034078345
97	0xbe93eb8a	-0.2889064
98	0xbdd15372	-0.10220994
99	0x3e7ae1b4	0.24500161
100	0x3dd8d07a	0.10586639
101	0x3f9523a6	1.1651504
102	0x3e5a99f3	0.2134779
103	0xbf344864	-0.7042296
104	0x3e7a3fe7	0.2443844
105	0x3e557a02	0.20847324
106	0xbeb68448	-0.35647798
107	0x3df0b8e1	0.11754013
108	0xbe04a26c	-0.12952584
109	0x3e276fc5	0.1635123
110	0xbe3bce7a	-0.18340483
111	0x3ed9e61f	0.4255838
112	0xbe8966c0	-0.26836205
113	0xbe136cb7	-0.1439694
114	0x3f03af26	0.5143913
115	0xbe1b441f	-0.15162705
116	0xbee7dbec	-0.45284975
117	0x3ef4d6b5	0.47820058
118	0xbf4674ed	-0.77522165
119	0x3e951133	0.29114684
120	0xbeec26d1	-0.46123365
121	0xbefd2d3f	-0.49448583
122	0x3e7add1a	0.24498406
123	0x3dbee123	0.09320285
124	0x3f82b83d	1.0212475
125	0x3e67e671	0.226465
126	0xbf6c8a7e	-0.9239882
127	0x3e227372	0.15864351
128	0xbe5d71b6	-0.21625409
129	0xbe818540	-0.25296974
130	0x3cecd352	0.02890936
131	0xbea73892	-0.32660347
132	0x3ed19fe9	0.40942314
133	0xbf5210a8	-0.82056665
134	0x3e27ff98	0.16406095
135	0xbf06ef8a	-0.5270926
136	0xbf40c506	-0.75300634
137	0xbc4df6cd	-0.012571049
138	0xbf4f1a2e	-0.8089932
139	0x3f4d3b1f	0.80168337
140	0xbf892880	-1.0715485
141	0xbe613baa	-0.21995416
142	0x3f419256	0.75613916
143	0xbde51e41	-0.11187411
144	0x3e2f5d2d	0.17125387
145	0xbe5915f6	-0.21199784
146	0xbf1524b1	-0.5825911
147	0xbe5462f3	-0.20740871
148	0xbea7ae9f	-0.32750413
149	0x3e869278	0.26283622
150	0xbec64431	-0.387239
151	0xbf056588	-0.5210805
152	0x3e92cd05	0.28672042
153	0x3f36901f	0.7131366
154	0xbf75cb2d	-0.96013147
155	0xbe97ccdb	-0.2964848
156	0x3ea50494	0.32230055
157	0x3e83229c	0.25612342
158	0xbf04aedf	-0.5182933
159	0x3f4a7475	0.7908395
160	0x3eb2c932	0.34919125
161	0x3f0ec182	0.5576402
162	0x3df790ce	0.12088166
163	0x3f743644	0.953953
164	0x3e9f242f	0.31082293
165	0xbf194616	-0.5987257
166	0xbe25b0e2	-0.16180757
167	0x3e034ebb	0.12823002
168	0x3ec2e1f8	0.38063025
169	0x3ea438a7	0.32074472
170	0x3f0ba275	0.54544765
171	0xbed9bca5	-0.42526737
172	0x3f456f13	0.7712261
173	0x3e1a8fa7	0.15093862
174	0xbe69da46	-0.22837171
175	0xbf43886a	-0.76380026
176	0x3c56c30d	0.013108027
177	0x3e924595	0.28568712
178	0x3e0af387	0.13569461
179	0x3ea1f6f6	0.3163373
180	0x3fa156ea	1.2604649
181	0x3eb5c86b	0.3550447
182	0xbe4b606d	-0.19861002
183	0xbf63ba45	-0.889561
184	0x3ea909d3	0.33015308
185	0xbe9b0dff	-0.30284116
186	0x3e09f4a6	0.13472232
187	0x3f4e5495	0.8059781
188	0xbe8c7e76	-0.27440232
189	0xbd01a97f	-0.031655785
190	0x3f62fe2b	0.8866908
191	0x3ee48256	0.44630688
192	0xbe81ffc1	-0.25390437
193	0x3e268335	0.16260989
194	0x3e4d57a2	0.2005296
195	0xbe6c1509	-0.230549
196	0x3e9b7932	0.30365902
197	0x3ede233f	0.43386266
198	0xbf72b38f	-0.94805235
199	0xbf623b12	-0.88371384
200	0xbec61ea3	-0.3869525
201	0xbf9bcde4	-1.2172208
202	0xbee388e0	-0.44440365
203	0x3e194883	0.14969067
204	0x3e3de500	0.18544388
205	0xbebf3b6a	-0.37350017
206	0x3e25e9cc	0.16202468
207	0x3ebc814d	0.368174
208	0xbf1409de	-0.57827556
209	0x3eae8f42	0.34093672
210	0xbeacfba0	-0.33785725
211	0x3e85551c	0.26041496
212	0x3f430af6	0.761886
213	0x3e62edee	0.22161075
214	0x3f2a69a9	0.66567475
215	0x3f460845	0.7735637
216	0xbe97e7fc	-0.29669178
217	0x3e877878	0.26459098
218	0x3efc11b6	0.49232262
219	0x3f22d21f	0.6360187
220	0xbf002c2f	-0.5006742
221	0xbefdf7e8	-0.496032
222	0x3cf15d2f	0.029463379
223	0x3ec79253	0.38978824
224	0x3d8b1e55	0.06792895
225	0xbe238770	-0.15969634
226	0xbe11de93	-0.14245062
227	0xbea3d1cb	-0.31995997
228	0x3e8c65a9	0.2742131
229	0xbe48adad	-0.19597502
230	0x3f06dbff	0.5267944
231	0x3ea94cd3	0.33066425
232	0xbeae9f1d	-0.3410577
233	0x3e20d6cb	0.15706937
234	0x3ef4dc5b	0.47824368
235	0x3e7069ce	0.23477861
236	0xbf618153	-0.8808796
237	0x3eb0b22a	0.34510928
238	0xbea34c4c	-0.31894147
239	0x3da9beb8	0.0828833
240	0xbef93545	-0.48673454
241	0x3f1117ce	0.5667695
242	0xbe1bb28c	-0.15204829
243	0x3f23a236	0.6391939
244	0x3ea186ec	0.3154825
245	0x3d96d92b	0.0736564
246	0xbc1d044e	-0.009583546
247	0x3f625496	0.8841032
248	0xbf07b01c	-0.53003097
249	0x3e237b34	0.15964967
250	0x3f47549d	0.77863485
251	0x3ed80912	0.4219442
252	0x3e2aee32	0.16692427
253	0x3e8aadee	0.27085823
254	0x3ca62f85	0.020286331
255	0x3e0dacec	0.13835496

bilstm.bias_ih_l0 f4 [256]
0	0xbe894166	-0.26807708
1	0x3e8256ad	0.25456753
2	0x3e422c86	0.18962297
3	0x3ddc943a	0.107704595
4	0xbe9be89e	-0.3045091
5	0x3e937104	0.28797162
6	0xbeb7f410	-0.35928392
7	0x3e8efb3b	0.2792605
8	0x3ee8f81b	0.4550179
9	0xbf16f3a6	-0.5896553
10	0x3d82c766	0.063856885
11	0x3e6b5bff	0.22984312
12	0x3f9d7252	1.2300513
13	0xbe1eb961	-0.15500404
14	0x3efb00c0	0.4902401
15	0xbc783dd5	-0.015151461
16	0xbf07310a	-0.528092
17	0x3f07cd39	0.5304752
18	0x3f440a50	0.76578236
19	0x3e476479	0.19471921
20	0xbdd3d56f	-0.103434436
21	0xbe6b2888	-0.2296468
22	0x3f1ac13c	0.604511
23	0xbe7a395d	-0.24435945
24	0x3f9b2442	1.212044
25	0x3f7038a8	0.9383645
26	0xbe5788ba	-0.21048251
27	0xbdfee05e	-0.124451384
28	0xbd153e1b	-0.03643618
29	0xbee46b79	-0.44613245
30	0x3e259214	0.16169006
31	0xbe4396bc	-0.1910047
32	0x3c28c46b	0.010300736
33	0x3ee44859	0.44586447
34	0xbd85d13b	-0.06534048
35	0x3e4b0001	0.1982422
36	0x3f4971f9	0.78689533
37	0x3d57128d	0.052507926
38	0x3f0319ef	0.51211447
39	0xbe189641	-0.14901067
40	0x3c6662f6	0.01406168
41	0xbf2726a3	-0.6529333
42	0xbe3ce01d	-0.18444867
43	0x3ecafdac	0.3964666
44	0x3fa650f8	1.299346
45	0xbdead9cb	-0.11467322
46	0x3e261e47	0.16222487
47	0x3eead882	0.45868307
48	0x3e93d1da	0.28871042
49	0xbd064b77	-0.032786813
50	0x3ebe7268	0.3719666
51	0x3eccafee	0.39977974
52	0x3e3339e9	0.1750256
53	0xbd9eb3d7	-0.077491455
54	0xbe60f3a1	-0.21967937
55	0x3f45165c	0.7698724
56	0x3f6d61af	0.9272718
57	0xbd6d9591	-0.058003966
58	0x3ded8e01	0.11599351
59	0xbcaf6a29	-0.021412926
60	0x3f14f28e	0.5818261
61	0xbf6afc61	-0.9179135
62	0x3e658807	0.22415172
63	0x3e93404d	0.28759995
64	0x3e352d39	0.17693032
65	0x3eb8d072	0.3609653
66	0x3e88b117	0.2669761
67	0xbc5b1ca6	-0.01337353
68	0x3e5350f6	0.20636353
69	0xbe435082	-0.1907368
70	0x3c2f8e32	0.010715054
71	0x3e1f503b	0.15557949
72	0x3edc09a3	0.42976102
73	0x3eaaf01e	0.3338632
74	0x3d9eb4b4	0.0774931
75	0xbdc141f2	-0.09436406
76	0x3e9c8941	0.30573466
77	0x3d33cb87	0.04389527
78	0x3e224e44	0.15850168
79	0x3dba2c3a	0.09090467
80	0x3f34e3dd	0.7066019
81	0x3de12dbf	0.109950535
82	0x3f857d2e	1.0428827
83	0x3e4fed88	0.20305455
84	0x3e6869c2	0.22696593
85	0x3d48c44e	0.049015336
86	0x3e6c98bf	0.23105143
87	0xbd2feaa7	-0.04294839
88	0x3f075076	0.5285715
89	0x3c9aeda6	0.018912148
90	0x3e7e2101	0.24817277
91	0x3e21f7d7	0.158172
92	0x3e1b970c	0.15194339
93	0x3e981d60	0.2970991
94	0x3ea53b0c	0.32271612
95	0x3f1957b5	0.59899455
96	0xbd58d827	-0.052940514
97	0x3c925923	0.01786477
98	0xbe8385b5	-0.25687948
99	0x3d48869d	0.048956502
100	0x3ec6e734	0.3884827
101	0xbcd54087	-0.026031746
102	0x3f21922a	0.63113654
103	0x3e9221db	0.28541455
104	0x3e10f046	0.14154157
105	0x3f261468	0.6487489
106	0x3f2fb4f2	0.68635476
107	0x3ee8ed11	0.45493367
108	0x3e98801c	0.2978524
109	0xbe59d740	-0.21273518
110	0x3e0796d1	0.13241126
111	0x3d97e236	0.07416193
112	0x3e6e458b	0.23268716
113	0xbdfffe16	-0.12499635
114	0x3d23d636	0.03999921
115	0xbd667485	-0.056263465
116	0x3bab0dff	0.0052201743
117	0x3c390254	0.011292059
118	0x3f0b445c	0.54401183
119	0x3efab872	0.48968846
120	0x3e269ca0	0.16270685
121	0x3e84a554	0.25907385
122	0x3eaff487	0.34366247
123	0xbe4ecf15	-0.20196183
124	0x3dda09fc	0.106464356
125	0x3edb0ab6	0.4278161
126	0xbd2035a9	-0.039113674
127	0xbc3f6fbf	-0.011684357
128	0x3d011a2b	0.031519096
129	0xbe30c227	-0.17261563
130	0xbe91e50d	-0.28495064
131	0x3ebfe971	0.3748279
132	0xbd9776c1	-0.073956974
133	0x3dcf29b6	0.101153776
134	0x3e3f8d9a	0.1870636
135	0x3c2d9b93	0.010596174
136	0xbe6257ef	-0.22103857
137	0x3ec7a350	0.38991785
138	0x3e9751dd	0.29554644
139	0xbd32bfda	-0.043639995
140	0xbe2aaa0a	-0.16666427
141	0xbeb6067d	-0.35551825
142	0xbdac2813	-0.08406081
143	0xbe819168	-0.2530625
144	0x3e3f6a46	0.18692884
145	0xbedbcf10	-0.42931414
146	0x3f06b498	0.52619314
147	0xbcb7271c	-0.022357516
148	0x3e7f29b5	0.24918254
149	0xbe366453	-0.17811708
150	0x3d229df2	0.03970141
151	0x3eaf7053	0.34265384
152	0xbf0c66f2	-0.5484458
153	0xbfbf9207	-1.4966439
154	0x3e24de77	0.16100489
155	0xbe400b78	-0.18754375
156	0xbdf30d63	-0.11867788
157	0xbe27fad3	-0.16404276
158	0x3e502f1e	0.20330474
159	0xbdf23e29	-0.11828262
160	0xbd7b15db	-0.06130014
161	0xbda2ba62	-0.07945706
162	0xbe29e133	-0.16589813
163	0xbce29c44	-0.027662404
164	0xbecafba8	-0.39645123
165	0xbe3de94d	-0.18546028
166	0xbe1e6474	-0.15468007
167	0xbdf44ece	-0.11929093
168	0xbd8c5643	-0.068523906
169	0xbea27559	-0.31730154
170	0xbe1cc1ff	-0.15308379
171	0x3e704094	0.23462135
172	0x3c00198f	0.007818594
173	0xbe044d9c	-0.1292023
174	0x3e134305	0.14381035
175	0xbc5b9136	-0.01340132
176	0x3d69389c	0.056938753
177	0xbcfdb20d	-0.03096869
178	0x3e6b8548	0.23000062
179	0xbeab9924	-0.33515275
180	0xbe0d3f9e	-0.137938
181	0xbda5d863	-0.08097913
182	0xbdf80244	-0.12109807
183	0xbc694b39	-0.014239126
184	0x3d7a5b78	0.061122388
185	0x3ec8246c	0.39090288
186	0xbe8d2c86	-0.2757303
187	0x3db5ce17	0.08877199
188	0xbe1cb76b	-0.15304343
189	0x3dab2089	0.08355815
190	0x3e3a2de8	0.18181574
191	0x3e2081b8	0.15674484
192	0x3d0787f2	0.033088632
193	0x3d301bf5	0.042995412
194	0xbe4956dc	-0.1966204
195	0x3d6f4205	0.05841257
196	0xbe898dde	-0.2686605
197	0xbec39a41	-0.38203624
198	0xbd2d2aec	-0.04227726
199	0x3e43b7fb	0.19113152
200	0xbbaa9cb6	-0.0052066697
201	0x3dae1177	0.08499425
202	0x3e6314c3	0.22175889
203	0xbe07d27d	-0.13263889
204	0x3d6f7991	0.058465544
205	0xbeb18125	-0.34668842
206	0x3cf64666	0.030062865
207	0xbe5eef2f	-0.21770929
208	0x3e85409e	0.26025862
209	0x3de073ce	0.10959588
210	0x3e1701ec	0.14746827
211	0xbd9ed5d3	-0.077556275
212	0x3ed0ddf8	0.4079435
213	0x3df59ce6	0.119928166
214	0xbe20332f	-0.15644525
215	0xbdaded4d	-0.08492527
216	0xbe8cc4da	-0.27493936
217	0x3e8f0dbf	0.27940175
218	0xbe8d88c6	-0.27643412
219	0x3e64c9c9	0.223426
220	0xbdc18956	-0.09450023
221	0xbb685fc9	-0.0035457483
222	0xbeb24492	-0.3481794
223	0xbd81faf1	-0.063466914
224	0xbe1d0d70	-0.15337157
225	0xbe4b35a7	-0.19844685
226	0xbdf275bd	-0.11838863
227	0x3db08b6d	0.08620343
228	0x3d9a7562	0.0754192
229	0xbecba773	-0.3977619
230	0xbd072b95	-0.033000547
231	0x3eb76c82	0.35824972
232	0xbd866b2f	-0.065634124
233	0x3e469202	0.19391635
234	0x3d36e9fa	0.04465673
235	0x3e892434	0.26785433
236	0xbe4f1224	-0.20221764
237	0xbe72cc69	-0.23710789
238	0xbd5e2e69	-0.05424348
239	0x3e6d4d84	0.23174101
240	0x3e71e164	0.23621136
241	0x3d5f7380	0.05455351
242	0x3ebb118b	0.36536822
243	0xbd84ffd2	-0.06494106
244	0x3dcbe42c	0.0995563
245	0x3e95e4ee	0.29276222
246	0xbd340cf9	-0.043957684
247	0xbd8d0702	-0.06886102
248	0x3eb27495	0.3485457
249	0x3e2c9d06	0.16856775
250	0x3df557f6	0.11979668
251	0xbe8cda3e	-0.27510256
252	0xbe6a4bda	-0.22880498
253	0xbe039f45	-0.12853725
254	0x3e907b83	0.28219232
255	0x3dddf0c4	0.10836938

bilstm.bias_hh_l0 f4 [256]
0	0xbe32f01b	-0.17474405
1	0x3e198d29	0.14995255
2	0x3e39a933	0.1813095
3	0x3d53abd7	0.05167755
4	0xbeda67ad	-0.42657223
5	0x3eebb238	0.46034408
6	0xbeb756d1	-0.35808423
7	0x3e9e632c	0.30935037
8	0x3eaabd99	0.33347777
9	0xbf287b49	-0.6581312
10	0xbdf7736c	-0.12082562
11	0x3e06adf1	0.13152291
12	0x3f9a3b53	1.2049354
13	0xbdb2d1f1	-0.087314494
14	0x3f095713	0.5364849
15	0x3e00a53b	0.1256303
16	0xbee2c888	-0.44293618
17	0x3f0a66bd	0.54063016
18	0x3f5ccb5b	0.86247796
19	0x3ea9a94a	0.3313697
20	0xbdf613a5	-0.12015466
21	0xbc81c318	-0.015840098
22	0x3f2221f1	0.6333304
23	0xbe7af86e	-0.24508831
24	0x3f80273b	1.0011972
25	0x3f5933aa	0.8484446
26	0xbd0dbef1	-0.034605924
27	0xbd0f4c31	-0.03498477
28	0xbe7a0882	-0.24417308
29	0xbe954f44	-0.29162037
30	0x3e799956	0.243749
31	0xbe8d740e	-0.27627605
32	0xbc2cc7f8	-0.010545723
33	0x3f228b43	0.63493747
34	0x3c87ad98	0.016562268
35	0x3e459390	0.19294572
36	0x3f439474	0.76398396
37	0x3dc72358	0.09723538
38	0x3f262a05	0.64907867
39	0xbd1bb816	-0.038017355
40	0x3cd84777	0.026401265
41	0xbf1f689d	-0.62269
42	0xbb60e7b9	-0.0034317805
43	0x3e8229f0	0.2542262
44	0x3fa92a26	1.3215988
45	0xbd7ea283	-0.062166702
46	0x3e101f72	0.14074495
47	0x3f165642	0.5872537
48	0x3e7f5c7b	0.24937622
49	0x3e0959d9	0.1341318
50	0x3ec7e979	0.39045313
51	0x3e8cb7a8	0.2748387
52	0x3e261937	0.16220556
53	0xbdc74746	-0.09730391
54	0xbe13fe26	-0.14452419
55	0x3f265a75	0.64981776
56	0x3f82b567	1.021161
57	0x3d1c32e9	0.03813449
58	0x3e8844fa	0.26615125
59	0xbd919a57	-0.07109516
60	0x3f183b07	0.5946507
61	0xbf80d5dc	-1.0065265
62	0x3dd39e88	0.10332972
63	0x3ea3db47	0.32003233
64	0x3e870bc7	0.26376173
65	0x3e11decf	0.14245151
66	0x3e656c5c	0.22404617
67	0xbe03bee0	-0.12865782
68	0x3d8e7489	0.06955821
69	0xbe97a5d1	-0.29618695
70	0x3e1a9fbb	0.15099995
71	0x3dac7a44	0.08421758
72	0x3ebe13e0	0.37124538
73	0x3ef6a433	0.4817215
74	0x3e03020d	0.12793751
75	0xbd8d082f	-0.068863265
76	0x3e8cf903	0.2753373
77	0x3bbc0d41	0.0057388847
78	0xbc36ac24	-0.01114944
79	0x3e249e85	0.16076095
80	0x3f4c6490	0.79840946
81	0x3db90d4e	0.09035741
82	0x3f825d3a	1.01847
83	0x3d92d8cf	0.07170259
84	0xbc0676d2	-0.00820704
85	0x3e3974be	0.1811094
86	0x3e49d37f	0.19709586
87	0xbe1dd107	-0.15411769
88	0x3eccd518	0.40006328
89	0xbe3e6ba6	-0.18595752
90	0x3e6222ad	0.2208354
91	0x3dd6dee8	0.10491735
92	0x3e12659f	0.14296578
93	0x3e4d7b4e	0.20066568
94	0x3eb1cca0	0.3472643
95	0x3f10fa28	0.5663171
96	0x3e41ad9f	0.18913887
97	0x3b8b3cf1	0.004249208
98	0xbdd139ae	-0.1021608
99	0x3ca429cf	0.020039467
100	0x3ec0a9ea	0.37629634
101	0xbe4ec0cf	-0.20190738
102	0x3f2d163a	0.6761204
103	0x3dcc3bbb	0.0997233
104	0x3e3b193b	0.18271343
105	0x3f231750	0.6370745
106	0x3f1d0cbe	0.6134757
107	0x3ee446b7	0.445852
108	0x3e6f55f9	0.2337264
109	0xbe4262db	-0.18983023
110	0x3cf2e179	0.02964853
111	0xbbd0cff9	-0.0063724485
112	0x3e9ff735	0.31243291
113	0xbdcfe761	-0.10151554
114	0xbddf6813	-0.109085225
115	0x3c05b769	0.008161404
116	0x3d3d1464	0.046162024
117	0xbdc748e2	-0.09730698
118	0x3ee91dfe	0.45530695
119	0x3eeafbc5	0.4589521
120	0x3ea804cd	0.32816163
121	0x3ea72820	0.326478
122	0x3ea95f01	0.33080295
123	0xbe09a0cb	-0.13440244
124	0x3e305439	0.17219628
125	0x3eeef4a4	0.4667102
126	0x3cb093b1	0.0215548
127	0xbe14af0e	-0.14519903
128	0x3db62e7e	0.088955864
129	0xbdf8c324	-0.12146595
130	0xbd5b1fe9	-0.05349723
131	0x3eaa5b20	0.33272648
132	0x3ddfb259	0.10922689
133	0x3c521a2f	0.0128236255
134	0xbc53a41e	-0.012917547
135	0xbd10f2a0	-0.035387635
136	0xbda4660b	-0.08027276
137	0x3e9e45c4	0.30912602
138	0x3e209b01	0.1568413
139	0xbe4cb09b	-0.19989245
140	0xbe949add	-0.290244
141	0xbec45d53	-0.3835245
142	0xbe1a043f	-0.15040682
143	0xbe5cc8b6	-0.2156094
144	0x3e2e8db5	0.17046244
145	0xbe8f7bb4	-0.28024065
146	0x3f081252	0.53152955
147	0x3aa0d7f0	0.0012271386
148	0x3e8a7569	0.27042702
149	0xbe5a2bad	-0.21305723
150	0xbd413806	-0.04717257
151	0x3ea2697a	0.31721097
152	0xbeadc9ec	-0.33943117
153	0xbfa56183	-1.2920383
154	0x3c9675f0	0.018366784
155	0xbe98a166	-0.29810637
156	0xbdeda94e	-0.11604558
157	0xbe234f3e	-0.15948197
158	0x3e53c3dd	0.20680185
159	0xbdc09289	-0.09402949
160	0x3d64ce95	0.055861074
161	0xbd353966	-0.044244193
162	0xbdf04534	-0.117319494
163	0xbc7a7cb1	-0.015288518
164	0xbed69b4f	-0.41915366
165	0x3c61d179	0.013782852
166	0xbca61e34	-0.020278074
167	0xbd94ef57	-0.07272213
168	0x3be0d4c1	0.0068612997
169	0xbe0c60f6	-0.13708863
170	0xbe2779cc	-0.16355056
171	0x3df68dad	0.12038741
172	0xbd116e66	-0.035505675
173	0xbddae169	-0.10687525
174	0x3dffddb4	0.124934584
175	0xbe1485ec	-0.14504212
176	0x3e1bdd2b	0.15221088
177	0xbcc7398b	-0.02431943
178	0x3e78d1f2	0.24298838
179	0xbe75bbb9	-0.23997392
180	0xbd28d553	-0.041219067
181	0x3b73d321	0.00372047
182	0xbdc5a59b	-0.09650727
183	0xbd386dd5	-0.04502662
184	0xbd04c0df	-0.0324105
185	0x3e4e8ca2	0.20170835
186	0xbe3f1557	-0.18660484
187	0x3d6d62cc	0.05795555
188	0xbdb941fe	-0.0904579
189	0x3ca1927c	0.01972317
190	0x3da84702	0.08216669
191	0x3e1b7ea1	0.15185024
192	0x3d22c96e	0.03974288
193	0x3e15897c	0.14603227
194	0xbea2cec3	-0.31798372
195	0xb9b264a2	-0.00034025783
196	0xbe7786ee	-0.24172565
197	0xbe4eea12	-0.20206478
198	0xbd0e9bb8	-0.034816474
199	0x3c6b4e06	0.014361864
200	0xbd716a7a	-0.058939435
201	0x3bae4c99	0.0053191897
202	0x3e2ca61b	0.16860239
203	0xbd6a5846	-0.05721309
204	0x3e06a486	0.13148698
205	0xbef9c1ce	-0.48780674
206	0x3d67f736	0.056632243
207	0xbe5bb16a	-0.21454397
208	0x3e4459f7	0.19174944
209	0x3e0b8c4c	0.13627738
210	0x3de1bca5	0.11022309
211	0xbd302366	-0.04300251
212	0x3e75605f	0.23962544
213	0x3de31368	0.11087686
214	0xbe08479e	-0.1330857
215	0xbe93b220	-0.28846836
216	0xbe49601a	-0.19665566
217	0x3ee94a2b	0.45564398
218	0xbebdb42c	-0.37051523
219	0x3ecc25b8	0.39872527
220	0xbda446e2	-0.08021332
221	0xbd469308	-0.048480064
222	0xbe945d0a	-0.28977233
223	0xbe05d17c	-0.13068193
224	0xbe822265	-0.25416866
225	0xbbeea71d	-0.007283105
226	0xbe26e9a5	-0.16300066
227	0x3e07eae1	0.13273193
228	0x3de38758	0.11109799
229	0xbe67db65	-0.22642286
230	0xbde522ae	-0.11188255
231	0x3ed440f1	0.41455796
232	0x3d18c4f8	0.03729722
233	0x3e9de115	0.30835786
234	0x3e4e90f5	0.20172484
235	0x3e6f32d8	0.23359239
236	0xbd274ff3	-0.04084773
237	0xbe60918c	-0.21930522
238	0xbda56646	-0.08076148
239	0x3e0beecb	0.13665311
240	0x3d837641	0.064190395
241	0xbde33242	-0.1109357
242	0x3ebb0cfe	0.3653335
243	0x3d8d08b3	0.06886425
244	0x3b19240e	0.0023367438
245	0x3e3ddb4e	0.1854069
246	0xbcc816ac	-0.024424873
247	0x3db77fcf	0.089599244
248	0x3ea0bbfb	0.31393418
249	0x3e8a8c34	0.27060091
250	0x3e963c7a	0.29343015
251	0xbe6a56ce	-0.22884676
252	0xbed25da8	-0.4108708
253	0xbdeb4999	-0.11488647
254	0x3ec7f86f	0.39056727
255	0x3e9eb341	0.30996135

bilstm.weight_ih_l0_reverse f4 [256, 32]
0	0x3db95f3e	0.09051369
1	0xbeb873a6	-0.36025733
2	0xbe62a022	-0.22131398
3	0x3b09671a	0.0020965994
4	0xbf5d562a	-0.864596
5	0xbb332ae7	-0.0027338804
6	0xbf16ed5b	-0.58955926
7	0xbe4a1ecd	-0.19738312
8	0xbe5e50a8	-0.21710455
9	0xbe35f331	-0.17768551
10	0x3d377b21	0.04479516
11	0x3ef0eb84	0.47054684
12	0x3c9e44e0	0.019319952
13	0xbf455d3c	-0.7709539
14	0xbf1d96e6	-0.6155838
15	0xc044b1a5	-3.0733426
16	0xbfe6d359	-1.8033248
17	0xbf29cd40	-0.6632881
18	0xbe94298d	-0.2893795
19	0x3cc78470	0.024355143
20	0xbf89514b	-1.0727934
21	0x3ba7dc93	0.00512273
22	0xbe953d06	-0.2914812
23	0xbece0dc3	-0.40244874
24	0xbdb956c9	-0.09049756
25	0xbeae9f57	-0.34105942
26	0xc016e183	-2.3575141
27	0xbf856fde	-1.0424764
28	0xbd87e40e	-0.06635295
29	0xbfb3552a	-1.4010365
30	0xbe749e69	-0.23888554
31	0x3e2f020a	0.17090622
32	0xbd9e9ae4	-0.07744387
33	0x3e1f3785	0.15548523
34	0xbde7cb42	-0.11318065
35	0xbdc11223	-0.094272874
36	0xbf5188e8	-0.8184953
37	0xbcdf6b9b	-0.02727299
38	0x3dfb3e2d	0.122677185
39	0xbc3d1b95	-0.011542221
40	0xbf028b59	-0.5099388
41	0x3d8e2dde	0.06942342
42	0x3de9f862	0.114243284
43	0x3f4b020c	0.793
44	0xbdd73c58	-0.105095565
45	0xbf634a01	-0.88784796
46	0xbe754b80	-0.23954582
47	0xc00c8ddb	-2.1961582
48	0xbfd02f71	-1.6264478
49	0x3e2f207a	0.17102233
50	0x3dd31039	0.103058286
51	0xbd823056	-0.063568756
52	0xbfb1db06	-1.3894966
53	0xbe060d55	-0.13091023
54	0xbef78d81	-0.48350146
55	0xbf2ea121	-0.68214613
56	0x3f388b3c	0.72087455
57	0xbba82ca3	-0.0051322742
58	0xbfa77a24	-1.3084149
59	0xbe91c09e	-0.28467268
60	0xbd04584c	-0.03231077
61	0xbef3bf23	-0.47606763
62	0xbd89c137	-0.06726306
63	0x3e342276	0.17591271
64	0xbd7c6a78	-0.061624974
65	0xbea64a02	-0.32478338
66	0xbd8dd303	-0.06925013
67	0xbeae2516	-0.3401267
68	0xbf23e267	-0.6401734
69	0xbf005ba6	-0.50139844
70	0xbf3fe9ea	-0.749663
71	0xbdefbee6	-0.11706333
72	0xbf17aa7f	-0.5924453
73	0xbe0fa09c	-0.14026111
74	0xbb304ccd	-0.0026901246
75	0x3e53ad06	0.20671472
76	0x3d931d1e	0.07183288
77	0xbf599efe	-0.8500823
78	0xbf969d0e	-1.1766679
79	0xc042692d	-3.0376694
80	0xbfb14416	-1.3848903
81	0xbf4600a9	-0.7734476
82	0xbe869fd2	-0.26293808
83	0x3dfee4a4	0.124459535
84	0xbf145c76	-0.57953584
85	0xbdf53321	-0.11972643
86	0xbf3484f0	-0.70515347
87	0xbf188aa8	-0.5958657
88	0xbd8900fd	-0.066896416
89	0xbe2a989e	-0.16659781
90	0xc009fe64	-2.1561518
91	0xbf923ba9	-1.1424457
92	0xbde4b8f4	-0.111680895
93	0xbfad1606	-1.3522346
94	0xbe44d9d1	-0.19223715
95	0xbda026e7	-0.0781992
96	0x3da4d8ca	0.08049162
97	0x3e141a8d	0.14463253
98	0xbd5abd90	-0.053403437
99	0x3e0d73a6	0.13813648
100	0x3f605f07	0.87645
101	0xbe32c6c7	-0.1745864
102	0x3f06d318	0.52665854
103	0x3f4e303e	0.8054236
104	0xbea82cd8	-0.32846713
105	0x3f17aef7	0.5925135
106	0x3ec9a6cc	0.39385068
107	0x3e9e9740	0.3097477
108	0x3d1177b4	0.03551455
109	0xbe1bbcdf	-0.15208767
110	0xbfa8fd6d	-1.320234
111	0x3e027295	0.12739022
112	0xbf48119a	-0.7815186
113	0x3efbc052	0.49170166
114	0x3f4d5b98	0.80217886
115	0xbd8832ba	-0.066503
116	0x3d97096f	0.07374846
117	0xbdd2b669	-0.10288698
118	0x3ee414d7	0.4454715
119	0xbd59f61b	-0.05321322
120	0x3f054dd2	0.5207187
121	0x3f60435d	0.8760279
122	0xc02827a2	-2.627419
123	0xbeaa5ac6	-0.3327238
124	0xbdc76f86	-0.09738068
125	0xbf12dd73	-0.57369155
126	0x3ea019c7	0.31269667
127	0x3ee9bbec	0.45651186
128	0xbd3584a4	-0.04431595
129	0x3e9c3c0d	0.30514565
130	0x3f30b47f	0.69025415
131	0xbdce53ac	-0.10074553
132	0x3e9d2ce4	0.3069831
133	0x3eb58a30	0.3545699
134	0x3e06e9a1	0.1317506
135	0x3edbe912	0.42951256
136	0x3e512acb	0.2042648
137	0x3e904363	0.28176412
138	0xbe33e64f	-0.17568325
139	0xbde591fa	-0.112094834
140	0xbc8bcf48	-0.017066613
141	0x3f8485de	1.0353353
142	0x3f4d7487	0.8025593
143	0xc0259a3f	-2.5875394
144	0xbf538a0d	-0.82632524
145	0xbc6d2d3a	-0.014476115
146	0xbdafed91	-0.08590234
147	0xbdeaa888	-0.11457926
148	0xbf71a77e	-0.943962
149	0x3da45102	0.080232635
150	0x3fd07030	1.6284237
151	0xbef00604	-0.4687959
152	0x3deb2ee4	0.11483553
153	0x3e903eaf	0.28172824
154	0xbfd8ff24	-1.6952863
155	0xbea47015	-0.32116762
156	0xbd976fb2	-0.07394351
157	0xbf09dfa7	-0.5385689
158	0xbf007d14	-0.50190854
159	0xbe537969	-0.20651783
160	0xbdc3b68e	-0.09556304
161	0x3dd59773	0.10429277
162	0x3f5fc04b	0.8740279
163	0x3ef30ae2	0.4746924
164	0x4044f828	3.0776463
165	0x3e599689	0.21248831
166	0x3e39a4b4	0.18129236
167	0x3f8640bc	1.0488505
168	0x3cc71bca	0.024305243
169	0x3e89a430	0.26883078
170	0x3f19cd2b	0.60078686
171	0x3fa1155f	1.2584647
172	0x3c8565d0	0.0162839
173	0xbe5dde72	-0.21666887
174	0xbed4377c	-0.4144858
175	0xc00ebe06	-2.230348
176	0xbf857926	-1.0427597
177	0xbda7fa89	-0.08202083
178	0x3f26c3a4	0.65142274
179	0x3dff4db8	0.124659956
180	0x3e5d5e58	0.2161802
181	0x3ce378fa	0.027767647
182	0xbdf1370d	-0.11778078
183	0x3e710dae	0.23540375
184	0x3f4ca3da	0.7993752
185	0x3ee06a9e	0.43831342
186	0xbfd283bf	-1.6446456
187	0x3e858cb8	0.26083922
188	0x3d732910	0.059365332
189	0xbf26daf4	-0.65177846
190	0x3ff5c4f2	1.9200728
191	0x3fec2306	1.8448188
192	0x3d430ac4	0.04761769
193	0x3c7dc5bc	0.015489038
194	0xbe902983	-0.2815667
195	0xbe069eae	-0.13146469
196	0x3e661c9d	0.22471853
197	0xbf16b369	-0.5886751
198	0xbe0d98a6	-0.13827762
199	0xbe33d201	-0.17560579
200	0xbf7266d0	-0.9468813
201	0xbe81717a	-0.25281888
202	0x3ca76634	0.020434476
203	0xbe971270	-0.29506254
204	0xbdc69fba	-0.09698434
205	0xbfc69372	-1.5513747
206	0xc000a884	-2.0102854
207	0xbfeec287	-1.8653115
208	0xbf60398c	-0.8758781
209	0x3db0c8f2	0.08632077
210	0xbea2f338	-0.31826186
211	0x3d22a6ac	0.039709732
212	0xbd2f96be	-0.04286837
213	0xbd12cc7f	-0.035839554
214	0xbf30fec2	-0.6913873
215	0x3d72a1c3	0.0592363
216	0x3e459071	0.19293381
217	0xbe345d82	-0.17613795
218	0xbff5bc42	-1.9198077
219	0xbf2ef404	-0.6834109
220	0x3d9304ac	0.071786255
221	0xbfe0f87a	-1.7575829
222	0x3e25d142	0.16193107
223	0x3ce156b7	0.02750717
224	0xbd434568	-0.047673613
225	0xbe9558aa	-0.29169208
226	0x3f521b06	0.82072484
227	0xbe17cd67	-0.14824449
228	0x3fa5d9b3	1.2957062
229	0x3f042b21	0.5162831
230	0x3dc7bd73	0.097529314
231	0x3e37705b	0.17913954
232	0x3ebb43c8	0.3657515
233	0x3ed21f28	0.41039395
234	0x3d9c6e13	0.076381825
235	0xbe39c061	-0.18139793
236	0xbd3ff254	-0.04686196
237	0x3f307437	0.6892733
238	0x3d03695e	0.032082908
239	0xbf1dd6c0	-0.6165581
240	0xbe4c23a3	-0.1993547
241	0xbe8d2c27	-0.27572748
242	0x3e3a8a4b	0.18216817
243	0xbc8d87a8	-0.0172766
244	0x3e30a14f	0.17249034
245	0x3d84b5af	0.06479966
246	0x3fb49355	1.4107462
247	0x3c18d318	0.009327672
248	0xbeb3465c	-0.35014617
249	0x3ebb20d9	0.36548498
250	0xc0047e30	-2.0702019
251	0xbe85125e	-0.25990576
252	0x3d3334f0	0.043751657
253	0xbf8ba5a3	-1.0909923
254	0xbc156c0d	-0.00912
255	0x3e9e89cc	0.30964506

bilstm.weight_hh_l0_reverse f4 [256, 64]
0	0xbd257bdc	-0.040401325
1	0x3d801be6	0.06255321
2	0x3d163a00	0.036676407
3	0xbdaaf84a	-0.08348139
4	0x3d3827f8	0.044959992
5	0x3bfb02e0	0.007660255
6	0x3dbf7b0a	0.0934964
7	0xbd943362	-0.07236363
8	0xbd1c62bc	-0.038180098
9	0x3d6b084c	0.05738096
10	0x3d73f388	0.05955842
11	0x3dd0b982	0.10191633
12	0x3dec6386	0.1154242
13	0xbb997020	-0.004682556
14	0x3dab783c	0.08372542
15	0x3d9d80f4	0.076906115
16	0x3d93b1be	0.07211636
17	0x3d2b7210	0.041856825
18	0xbdd1688a	-0.10225017
19	0xbc9beba8	-0.019033268
20	0xbd940b3e	-0.07228707
21	0x3dc7cec6	0.09756236
22	0x3da87fbe	0.0822749
23	0xbd8dcd84	-0.069239646
24	0xbde15c78	-0.11003965
25	0xbdfc94cc	-0.12333068
26	0xbdcbda64	-0.09953764
27	0xbd2d74e4	-0.042347804
28	0xbc95d648	-0.018290654
29	0xbbe61720	-0.0070217997
30	0xbd34e994	-0.04416807
31	0x3d1df418	0.038562864
32	0xbc18c860	-0.009325117
33	0xbdee433a	-0.11633916
34	0x3d336da4	0.043805733
35	0xbbad9da0	-0.0052983314
36	0x3de29856	0.11064212
37	0x3d7bcc8c	0.061474368
38	0x3d126cc4	0.03574826
39	0xbdb0fcf6	-0.086419985
40	0x3daf4f66	0.08560066
41	0x3d7161e8	0.05893126
42	0xbd966726	-0.07343893
43	0xbdc96088	-0.09832865
44	0x3d93c310	0.072149396
45	0x3d1442d0	0.03619653
46	0xbdd2bfa8	-0.10290462
47	0x3dacfd9e	0.08446811
48	0x3da5a20e	0.0808755
49	0xbdaae7f2	-0.08345021
50	0x3ccdd8d0	0.025127798
51	0x3cb124c0	0.02162397
52	0x3bb38720	0.0054787546
53	0x3d7ee530	0.06223029
54	0xbdb6b9be	-0.08922146
55	0x3c221e20	0.009894878
56	0x3acaba00	0.0015466809
57	0x3db2d352	0.087317124
58	0x3dc188d0	0.09449923
59	0xbcf5dba0	-0.030011952
60	0xbb320a40	-0.0027166754
61	0xbd7ca854	-0.061683968
62	0x3dafa596	0.08576505
63	0xbda4e190	-0.08050835
64	0x3d83c9f4	0.06435004
65	0x3dcdb0e0	0.10043502
66	0x3d4adef0	0.049529016
67	0xbdf71734	-0.120649725
68	0x3d4d1538	0.050069064
69	0xbd8e98a6	-0.06962709
70	0xbdb379ec	-0.08763489
71	0xbd959e94	-0.07305637
72	0xbcfacb18	-0.03061442
73	0xbd7e689c	-0.062111482
74	0xbd8744b8	-0.06604904
75	0xbdc36e26	-0.095424935
76	0xbb1e7f40	-0.0024184734
77	0xbdca8eae	-0.09890495
78	0x3dd8d77e	0.10587977
79	0xbbe36180	-0.006939113
80	0xbdcd6ebe	-0.10030888
81	0x3de704fc	0.112802476
82	0xbdc75e78	-0.09734815
83	0xbc34a730	-0.011026189
84	0xbde377da	-0.11106844
85	0x3dd57d98	0.10424346
86	0xbba5aca0	-0.005055979
87	0xbdb746aa	-0.08949025
88	0x3db67b70	0.089102626
89	0x3d84c0b8	0.06482071
90	0xbc8b5d58	-0.017012283
91	0x3df8eaa6	0.12154131
92	0xbd0992f0	-0.033587396
93	0x3db88116	0.09008996
94	0xbd839168	-0.064242184
95	0x3d7934b0	0.060841262
96	0x3d4ab874	0.049492314
97	0xbb5b0fc0	-0.0033426136
98	0xbd073584	-0.03301002
99	0x3d9084c0	0.0705657
100	0x3d4c2e80	0.049849033
101	0xbd862b76	-0.06551258
102	0xbd644530	-0.055730045
103	0xbd7a8be4	-0.061168566
104	0x3d877e08	0.066158354
105	0xbb0b59c0	-0.0021263212
106	0xbc55d9e0	-0.013052434
107	0x3d94bec6	0.0726295
108	0x3df35064	0.11880568
109	0xbd7b2018	-0.061309904
110	0xbd2815fc	-0.04103659
111	0xbdae9710	-0.08524907
112	0xbddea472	-0.10871209
113	0x3d0e0270	0.034670293
114	0xbd4d47b4	-0.05011721
115	0xbdb08584	-0.08619216
116	0xbd3f7f50	-0.046752274
117	0xbdce19e8	-0.10063535
118	0xbca19b48	-0.019727364
119	0x3ddfe232	0.10931815
120	0x3d1f7a44	0.03893496
121	0xbd808584	-0.06275466
122	0xbc6d1700	-0.014470816
123	0xbdd18abc	-0.102315396
124	0x3de0203e	0.1094365
125	0x3d3b4870	0.04572338
126	0x3c707f50	0.014678791
127	0x3d17b058	0.03703341
128	0x3d1af030	0.037826717
129	0x3d1530bc	0.03642343
130	0x3d04e520	0.032445073
131	0xbc635a20	-0.013876468
132	0x3dfd8cc8	0.123803675
133	0x3de3fa84	0.111317664
134	0xbdf0c750	-0.11756766
135	0xbcfc7628	-0.03081806
136	0xbd1e9938	-0.03872034
137	0xbd32542c	-0.043537304
138	0x3d873d32	0.06603469
139	0xbce3d1c8	-0.027809992
140	0xbc57bb30	-0.013167188
141	0x3d30dff0	0.043182313
142	0x3d403a30	0.046930492
143	0xbca7b7a8	-0.020473316
144	0xbdb9fb92	-0.09081186
145	0xbd21bcd0	-0.039486706
146	0xbdb98f8a	-0.09060581
147	0x3d3f8724	0.04675974
148	0xbcd53648	-0.02602686
149	0x3dcf0abe	0.10109471
150	0x3c8d5858	0.01725404
151	0xbc497320	-0.012295514
152	0x3ca1ad98	0.019736096
153	0xbd49f2cc	-0.049303815
154	0x3d7c7f8c	0.061645076
155	0x3d790a88	0.06080106
156	0x3d9612f6	0.07327835
157	0xbc132e40	-0.008983195
158	0xbd99f47c	-0.07517335
159	0x3b33a680	0.0027412474
160	0x3dc047c0	0.09388685
161	0x3c816300	0.015794277
162	0x3b882a40	0.004155427
163	0x3bfbffe0	0.007690415
164	0xbd3a3e14	-0.04546936
165	0xbc5af3c0	-0.013363779
166	0x3d5c2a7c	0.053751454
167	0xbc135870	-0.008993253
168	0x3a8a9200	0.0010572076
169	0x3bdd3620	0.006750837
170	0xbd18c480	-0.037296772
171	0xbd489b2c	-0.04897611
172	0xbc2b4940	-0.010454476
173	0x3d2f8d30	0.042859256
174	0xbd24e468	-0.040256888
175	0xbdbf4f7e	-0.09341334
176	0x3dae9c3a	0.085258916
177	0x3dafa726	0.08576803
178	0xbca50940	-0.020146012
179	0xbd9f77f2	-0.0778655
180	0xbdb8e05c	-0.09027168
181	0xbc82f760	-0.015987098
182	0xbcf3a588	-0.029742017
183	0xba4df800	-0.0007857084
184	0x3df7f988	0.12108141
185	0xbdbdb490	-0.09262955
186	0xbd8c76fa	-0.068586305
187	0xbd8e3590	-0.0694381
188	0xbda997fa	-0.0828094
189	0xbded8836	-0.11598246
190	0x3dda0bbc	0.106467694
191	0x3d2b7668	0.041860968
192	0x3d0b089c	0.033943757
193	0xbb0f4940	-0.0021863729
194	0xbda2142a	-0.07914002
195	0x3ded48d2	0.11586155
196	0x3dc47a4a	0.09593637
197	0xbd2cfaf0	-0.0422315
198	0xbdd19e08	-0.1023522
199	0x3dc1b658	0.094586074
200	0xbdd933f4	-0.106056124
201	0xbdbade22	-0.091244
202	0xbdb9c7d0	-0.09071314
203	0x3d84dffa	0.06488033
204	0xbd4a0908	-0.04932502
205	0xbdeee6a2	-0.116650835
206	0x3d4a8c08	0.04944995
207	0xbd9b534c	-0.07584247
208	0x3d2a61ec	0.04159729
209	0xbc6fb550	-0.014630631
210	0xbdbb4732	-0.09144439
211	0x3dca9480	0.098916054
212	0x3ceb01b0	0.028687328
213	0x3dce6e1e	0.10079597
214	0x3dd27cb6	0.10277693
215	0x3b8e5100	0.004343152
216	0xbcbea5c0	-0.023272395
217	0xbd3acd34	-0.045605853
218	0xbdf95bc0	-0.12175703
219	0x3d438320	0.047732472
220	0x3dd41b08	0.10356718
221	0x3bd39320	0.0064567477
222	0x3d3b2a10	0.04569441
223	0x3ceb4288	0.028718248
224	0xbdcff6d8	-0.101545036
225	0xbd8b1eba	-0.0679297
226	0xbdf6c52e	-0.12049328
227	0x3de2a594	0.11066738
228	0x3dac178a	0.08402927
229	0xbd21a748	-0.039466172
230	0x3d399390	0.045306742
231	0x3dfb2d62	0.122645155
232	0xbd568094	-0.052368715
233	0x3d808af4	0.06276503
234	0x3d8e40c4	0.06945947
235	0x3d0351a8	0.032060295
236	0xbd910960	-0.07081866
237	0xbd00abbc	-0.03141378
238	0x3de709e2	0.11281182
239	0xbde39500	-0.11112404
240	0x3cc89850	0.02448669
241	0x3d06bc28	0.032894284
242	0x3df02ca6	0.11727266
243	0xbd2156ec	-0.039389536
244	0xbdc12ae6	-0.0943201
245	0xbd3b1f10	-0.04568392
246	0x3cea6ce8	0.028616384
247	0xbcc24c38	-0.023717985
248	0xbdc88482	-0.09790899
249	0x3dcf27be	0.10115002
250	0xbdc0b9c0	-0.09410429
251	0x3df79cfa	0.12090488
252	0xbdd81b1a	-0.10552044
253	0x3cd527a0	0.026019871
254	0x3b5e1e00	0.0033892393
255	0x3d01dd38	0.03170511
